Files already downloaded and verified
Files already downloaded and verified
----------------------------------------------------------------
        Layer (type)               Output Shape         Param #
================================================================
            Conv2d-1         [-1, 64, 224, 224]           1,792
       BatchNorm2d-2         [-1, 64, 224, 224]             128
              ReLU-3         [-1, 64, 224, 224]               0
            Conv2d-4        [-1, 128, 224, 224]          73,856
       BatchNorm2d-5        [-1, 128, 224, 224]             256
              ReLU-6        [-1, 128, 224, 224]               0
         MaxPool2d-7        [-1, 128, 112, 112]               0
            Conv2d-8        [-1, 128, 112, 112]         147,456
       BatchNorm2d-9        [-1, 128, 112, 112]             256
             ReLU-10        [-1, 128, 112, 112]               0
           Conv2d-11        [-1, 128, 112, 112]         147,456
      BatchNorm2d-12        [-1, 128, 112, 112]             256
             ReLU-13        [-1, 128, 112, 112]               0
       BasicBlock-14        [-1, 128, 112, 112]               0
           Conv2d-15        [-1, 256, 112, 112]         295,168
      BatchNorm2d-16        [-1, 256, 112, 112]             512
             ReLU-17        [-1, 256, 112, 112]               0
        MaxPool2d-18          [-1, 256, 56, 56]               0
           Conv2d-19          [-1, 512, 56, 56]       1,180,160
      BatchNorm2d-20          [-1, 512, 56, 56]           1,024
             ReLU-21          [-1, 512, 56, 56]               0
        MaxPool2d-22          [-1, 512, 28, 28]               0
           Conv2d-23          [-1, 512, 28, 28]       2,359,296
      BatchNorm2d-24          [-1, 512, 28, 28]           1,024
             ReLU-25          [-1, 512, 28, 28]               0
           Conv2d-26          [-1, 512, 28, 28]       2,359,296
      BatchNorm2d-27          [-1, 512, 28, 28]           1,024
             ReLU-28          [-1, 512, 28, 28]               0
       BasicBlock-29          [-1, 512, 28, 28]               0
          Dropout-30          [-1, 512, 28, 28]               0
AdaptiveAvgPool2d-31            [-1, 512, 1, 1]               0
          Flatten-32                  [-1, 512]               0
           Linear-33                   [-1, 10]           5,130
================================================================
Total params: 6,574,090
Trainable params: 6,574,090
Non-trainable params: 0
----------------------------------------------------------------
Input size (MB): 0.57
Forward/backward pass size (MB): 462.45
Params size (MB): 25.08
Estimated Total Size (MB): 488.10
----------------------------------------------------------------
Validation loss decreased (2.595347 --> 2.595347).  Saving model ...
…
