Files already downloaded and verified
Files already downloaded and verified
----------------------------------------------------------------
        Layer (type)               Output Shape         Param #
================================================================
            Conv2d-1         [-1, 64, 224, 224]           1,792
       BatchNorm2d-2         [-1, 64, 224, 224]             128
              ReLU-3         [-1, 64, 224, 224]               0
            Conv2d-4        [-1, 128, 224, 224]          73,856
       BatchNorm2d-5        [-1, 128, 224, 224]             256
              ReLU-6        [-1, 128, 224, 224]               0
         MaxPool2d-7        [-1, 128, 112, 112]               0
            Conv2d-8        [-1, 128, 112, 112]         147,456
       BatchNorm2d-9        [-1, 128, 112, 112]             256
             ReLU-10        [-1, 128, 112, 112]               0
           Conv2d-11        [-1, 128, 112, 112]         147,456
      BatchNorm2d-12        [-1, 128, 112, 112]             256
             ReLU-13        [-1, 128, 112, 112]               0
       BasicBlock-14        [-1, 128, 112, 112]               0
           Conv2d-15        [-1, 256, 112, 112]         295,168
      BatchNorm2d-16        [-1, 256, 112, 112]             512
             ReLU-17        [-1, 256, 112, 112]               0
        MaxPool2d-18          [-1, 256, 56, 56]               0
           Conv2d-19          [-1, 512, 56, 56]       1,180,160
      BatchNorm2d-20          [-1, 512, 56, 56]           1,024
             ReLU-21          [-1, 512, 56, 56]               0
        MaxPool2d-22          [-1, 512, 28, 28]               0
           Conv2d-23          [-1, 512, 28, 28]       2,359,296
      BatchNorm2d-24          [-1, 512, 28, 28]           1,024
             ReLU-25          [-1, 512, 28, 28]               0
           Conv2d-26          [-1, 512, 28, 28]       2,359,296
      BatchNorm2d-27          [-1, 512, 28, 28]           1,024
             ReLU-28          [-1, 512, 28, 28]               0
       BasicBlock-29          [-1, 512, 28, 28]               0
           Conv2d-30         [-1, 1024, 28, 28]       4,719,616
      BatchNorm2d-31         [-1, 1024, 28, 28]           2,048
             ReLU-32         [-1, 1024, 28, 28]               0
        MaxPool2d-33         [-1, 1024, 14, 14]               0
           Conv2d-34         [-1, 2048, 14, 14]      18,876,416
      BatchNorm2d-35         [-1, 2048, 14, 14]           4,096
             ReLU-36         [-1, 2048, 14, 14]               0
        MaxPool2d-37           [-1, 2048, 7, 7]               0
           Conv2d-38           [-1, 2048, 7, 7]      37,748,736
      BatchNorm2d-39           [-1, 2048, 7, 7]           4,096
             ReLU-40           [-1, 2048, 7, 7]               0
           Conv2d-41           [-1, 2048, 7, 7]      37,748,736
      BatchNorm2d-42           [-1, 2048, 7, 7]           4,096
             ReLU-43           [-1, 2048, 7, 7]               0
       BasicBlock-44           [-1, 2048, 7, 7]               0
          Dropout-45           [-1, 2048, 7, 7]               0
AdaptiveAvgPool2d-46           [-1, 2048, 1, 1]               0
          Flatten-47                 [-1, 2048]               0
           Linear-48                   [-1, 10]          20,490
================================================================
Total params: 105,697,290
Trainable params: 105,697,290
Non-trainable params: 0
----------------------------------------------------------------
Input size (MB): 0.57
Forward/backward pass size (MB): 495.39
Params size (MB): 403.20
Estimated Total Size (MB): 899.17
----------------------------------------------------------------
Validation loss decreased (521.658715 --> 521.658715).  Saving model ...
…
