Files already downloaded and verified
Files already downloaded and verified
----------------------------------------------------------------
        Layer (type)               Output Shape         Param #
================================================================
            Conv2d-1         [-1, 64, 224, 224]           1,792
       BatchNorm2d-2         [-1, 64, 224, 224]             128
              ReLU-3         [-1, 64, 224, 224]               0
            Conv2d-4        [-1, 128, 224, 224]          73,856
       BatchNorm2d-5        [-1, 128, 224, 224]             256
              ReLU-6        [-1, 128, 224, 224]               0
         MaxPool2d-7        [-1, 128, 112, 112]               0
            Conv2d-8        [-1, 128, 112, 112]         147,456
       BatchNorm2d-9        [-1, 128, 112, 112]             256
             ReLU-10        [-1, 128, 112, 112]               0
           Conv2d-11        [-1, 128, 112, 112]         147,456
      BatchNorm2d-12        [-1, 128, 112, 112]             256
             ReLU-13        [-1, 128, 112, 112]               0
       BasicBlock-14        [-1, 128, 112, 112]               0
          Dropout-15        [-1, 128, 112, 112]               0
AdaptiveAvgPool2d-16            [-1, 128, 1, 1]               0
          Flatten-17                  [-1, 128]               0
           Linear-18                   [-1, 10]           1,290
================================================================
Total params: 372,746
Trainable params: 372,746
Non-trainable params: 0
----------------------------------------------------------------
Input size (MB): 0.57
Forward/backward pass size (MB): 330.75
Params size (MB): 1.42
Estimated Total Size (MB): 332.75
----------------------------------------------------------------
Validation loss decreased (1.772572 --> 1.772572).  Saving model ...
…
