Files already downloaded and verified
Files already downloaded and verified
----------------------------------------------------------------
        Layer (type)               Output Shape         Param #
================================================================
            Conv2d-1         [-1, 64, 224, 224]           1,792
              ReLU-2         [-1, 64, 224, 224]               0
            Conv2d-3        [-1, 128, 224, 224]          73,856
              ReLU-4        [-1, 128, 224, 224]               0
         MaxPool2d-5        [-1, 128, 112, 112]               0
            Conv2d-6        [-1, 128, 112, 112]         147,456
              ReLU-7        [-1, 128, 112, 112]               0
            Conv2d-8        [-1, 128, 112, 112]         147,456
              ReLU-9        [-1, 128, 112, 112]               0
       BasicBlock-10        [-1, 128, 112, 112]               0
           Conv2d-11        [-1, 256, 112, 112]         295,168
             ReLU-12        [-1, 256, 112, 112]               0
        MaxPool2d-13          [-1, 256, 56, 56]               0
           Conv2d-14          [-1, 512, 56, 56]       1,180,160
             ReLU-15          [-1, 512, 56, 56]               0
        MaxPool2d-16          [-1, 512, 28, 28]               0
           Conv2d-17          [-1, 512, 28, 28]       2,359,296
             ReLU-18          [-1, 512, 28, 28]               0
           Conv2d-19          [-1, 512, 28, 28]       2,359,296
             ReLU-20          [-1, 512, 28, 28]               0
       BasicBlock-21          [-1, 512, 28, 28]               0
          Dropout-22          [-1, 512, 28, 28]               0
AdaptiveAvgPool2d-23            [-1, 512, 1, 1]               0
          Flatten-24                  [-1, 512]               0
           Linear-25                   [-1, 10]           5,130
================================================================
Total params: 6,569,610
Trainable params: 6,569,610
Non-trainable params: 0
----------------------------------------------------------------
Input size (MB): 0.57
Forward/backward pass size (MB): 321.57
Params size (MB): 25.06
Estimated Total Size (MB): 347.21
----------------------------------------------------------------
Validation loss decreased (2.100769 --> 2.100769).  Saving model ...
…
